torch-study/official_demo/Lenet.pth (torch_old, 486330 bytes, 10 tensors)

conv1.weight f4 [16, 3, 5, 5]
0.05330262 0.039062902 -0.06647164 -0.07527082 -0.020913411 -0.06351685 0.03166325 -0.07006671
0.038055427 -0.045967773 -0.11036027 -0.13179359 -0.12640902 0.006322806 0.01573059 -0.16751258
-0.11056624 -0.115963124 -0.077509664 -0.07549956 -0.2376588 -0.22672777 -0.024739802 0.030749137
0.01647217 -0.03224823 0.018732877 -0.14812881 -0.050715037 0.025596807 0.10158386 -0.011750124
-0.007816491 -0.11168896 0.04692094 0.068195745 0.07805438 -0.060171545 -0.0710717 -0.04298315
-0.038223073 -0.031183321 0.07187871 0.06261933 0.055850998 -0.04472979 0.02974318 -0.10064251
-0.0051855147 -0.06583487 0.074926816 -0.0816538 -0.014520623 -0.05337898 -0.13986777 0.10459523
-0.055695012 -0.00023698868 -0.018094221 -0.17843105 -0.0431479 0.1603981 0.15769075 -0.015851654
-0.0432192 0.08345191 0.16890605 0.09174127 0.07588102 0.042973135 0.1174375 0.17717776
0.24787593 0.13368385 0.13812034 0.16139667 0.11842321 0.048182324 0.0048580556 -0.05415675
0.21064591 -0.0680171 -0.19975333 0.012058018 0.14962004 0.0817946 -0.14056228 -0.0068870555
0.14079729 -0.04240516 -0.0917032 0.012714831 0.22524339 0.12764755 -0.13662532 -0.022862649
0.16266574 0.17681703 0.0024701983 -0.1908547 -0.025198342 -0.057234313 -0.15065898 -0.11949791
0.06832931 0.09781834 -0.07266097 -0.09466192 -0.1136408 0.031729285 -0.08157302 -0.21225224
-0.03530302 0.113738306 0.07973487 -0.22411633 -0.08391944 0.10006261 0.08951458 -0.004267216
-0.044826865 -0.055431627 0.017088337 -0.008024012 -0.13991703 0.17013532 0.0350425 -0.10426806
-0.10657778 -0.025037615 0.052492622 0.0632656 -0.10825522 -0.066773415 0.07850085 0.08975221
-0.048874978 -0.11096798 -0.0006720554 0.15748727 -0.16656534 -0.069984086 0.22172719 0.10913568
-0.048204176 -0.11694989 0.13619523 0.1601005 0.1162757 -0.15167268 0.039618425 0.1726764
-0.061762895 0.04724549 0.009154289 -0.21521653 -0.050205074 0.3376696 0.05139448 -0.05464001
-0.18031019 -0.11383641 -0.083176196 0.18246177 0.14860302 0.12352945 -0.121584184 -0.21289317
-0.061690938 0.041700684 0.07672805 0.15960829 0.03836355 -0.14273721 -0.1301022 -0.043140586
0.20561334 -0.08728655 -0.09484393 -0.028139094 -0.1915129 -0.02698571 0.23639971 0.24347632
-0.04689293 0.024866866 -0.21354473 -0.07656239 0.023320189 0.18301536 0.19213758 -0.14561573
-0.07199229 -0.15422569 -0.016508251 0.05149779 0.033029977 0.06292718 -0.13698241 -0.059163548
0.0054920455 0.069907784 -0.130121 -0.18591905 -0.19328898 -0.107175164 -0.016349116 0.14259413
0.11436146 -0.12613222 -0.0061320174 -0.045266468 -0.13624316 0.18694894 0.16743046 0.15014347
0.08697431 -0.009303838 -0.09115723 0.112621 0.044001177 0.027553244 0.023800869 -0.06657205
-0.0073694526 0.07521773 -0.0035939985 -0.103376016 -0.056717616 0.019355536 -0.052819315 0.0639986
-0.11484924 -0.03313524 -0.084949814 -0.043322712 -0.011213068 -0.025145607 0.047321904 -0.084526494
0.003541753 -0.042925507 0.1390983 0.00080106745 0.05197016 -0.04193332 0.1252167 0.13554828
0.0062020603 -0.08988848 0.13312471 0.1192786 0.04596045 -0.111564964 -0.01753927 0.12270136
00000000: d953 5a3d 6c00 203d 4822 88bd 9627 9abd
00000010: 9a52 abbc 1f15 82bd 53b1 013d 237f 8fbd
00000020: 02e0 1b3d b448 3cbd 9104 e2bd e6f4 06be
00000030: 5e71 01be 8a2f cf3b 70dd 803c 6b88 2bbe
00000040: 8e70 e2bd 137e edbd 63bd 9ebd 839f 9abd
00000050: d45c 73be 532b 68be 20ab cabc 9de5 fb3c
00000060: a5f0 863c b816 04bd b175 993c 14af 17be
00000070: 92ba 4fbd 65b0 d13c 330b d03d 9883 40bc
00000080: bd10 00bc 2ebd e4bd 2c30 403d 36aa 8b3d
00000090: fada 9f3d 7076 76bd 0a8e 91bd 190f 30bd
000000a0: cc8f 1cbd 2a74 ffbc 2535 933d 903e 803d
000000b0: 04c4 643d 9636 37bd f8a7 f33c a91d cebd
000000c0: 40eb a9bb 6fd4 86bd 3b73 993d 1c3a a7bd
000000d0: e8e7 6dbc eba3 5abd 7f39 0fbe 0636 d63d
000000e0: 7420 64bd 2a80 78b9 553a 94bc a1b6 36be
000000f0: dabb 30bd 663f 243e af79 213e 54db 81bc
00000100: 9e06 31bd d6e8 aa3d b5f5 2c3e d9e2 bb3d
00000110: 8267 9b3d 9904 303d 1283 f03d 166e 353e
00000120: 30d3 7d3e 6be4 083e 6b6f 0d3e 2b45 253e
00000130: de87 f23d d45a 453d 5330 9f3b 78d3 5dbd
00000140: 90b3 573e 8d4c 8bbd 238c 4cbe fe8e 453c
00000150: ff35 193e ed83 a73d 8fef 0fbe cfac e1bb
00000160: 2a2d 103e 08b1 2dbd e3ce bbbd de51 503c
00000170: 34a6 663e 0ab6 023e 82e7 0bbe 734a bbbc
00000180: d991 263e 860f 353e 0de3 213b 6a6f 43be
00000190: c16c cebc 876e 6abd 5946 1abe 52bb f4bd
000001a0: 3df0 8b3d fb54 c83d 46cf 94bd 1cde c1bd
000001b0: 82bc e8bd 91f6 013d c10f a7bd a758 59be
000001c0: e699 10bd a1ef e83d 094c a33d c07e 65be
000001d0: f5dd abbd a0ed cc3d 6c53 b73d 01d4 8bbb
000001e0: 609c 37bd 460c 63bd d7fc 8b3c 2577 03bc
000001f0: 6946 0fbe f437 2e3e b988 0f3d 7e8a d5bd
00000200: 7345 dabd af1b cdbc 8102 573d 6591 813d
00000210: eab4 ddbd 80c0 88bd 0ec5 a03d 02d0 b73d
00000220: 2131 48bd 2e43 e3bd e02c 30ba 5844 213e
00000230: 1b90 2abe d153 8fbd 740c 633e 8782 df3d
00000240: be71 45bd 6d83 efbd c376 0b3e 63f1 233e
00000250: f421 ee3d 1550 1bbe ee46 223d 15d2 303e
00000260: 17fb 7cbd 7d84 413d dffb 153c b961 5cbe
00000270: d6a3 4dbd 08e3 ac3e 0583 523d 34ce 5fbd
00000280: 3ca3 38be 1023 e9bd 4858 aabd 42d7 3a3e
00000290: 642b 183e 02fd fc3d 2101 f9bd ab00 5abe
000002a0: a3af 7cbd 56ce 2a3d 9923 9d3d 5b70 233e
000002b0: 1923 1d3d b429 12be 8339 05be 2fb4 30bd
000002c0: 4e8c 523e 4ac3 b2bd 893d c2bd f583 e6bc
000002d0: f51b 44be 2311 ddbc c412 723e db51 793e
000002e0: cd12 40bd 99b5 cb3c 78ab 5abe becc 9cbd
000002f0: fb09 bf3c 6168 3b3e b7bf 443e 4a1c 15be
00000300: b270 93bd 57ed 1dbe 503c 87bc 59ef 523d
00000310: 714a 073d f7df 803d 1e45 0cbe 7a55 72bd
00000320: 9ef6 b33b d02b 8f3d 703e 05be 9061 3ebe
00000330: 8ced 45be a77e dbbd 95ee 85bc 3204 123e
00000340: 5736 ea3d ce28 01be 17ef c8bb 5569 39bd
00000350: 5483 0bbe 8b6f 3f3e e472 2b3e 36bf 193e
00000360: 961f b23d 206f 18bc a4b0 babd d7a5 e63d
00000370: 943a 343d 57b7 e13c 0afa c23c ed56 88bd
00000380: 737b f1bb c10b 9a3d 4a89 6bbb ceb6 d3bd
00000390: bb50 68bd 808f 9e3c 1159 58bd b311 833d
000003a0: 1436 ebbd d1b8 07bd 2bfa adbd 2873 31bd
000003b0: 04b7 37bc 29fe cdbc 9dd4 413d 3a1c adbd
000003c0: c11c 683b a8d2 2fbd c96f 0e3e bafe 513a
000003d0: aade 543d 46c2 2bbd ce38 003e 2bcd 0a3e
000003e0: a73a cb3b 7417 b8bd d851 083e 5748 f43d
000003f0: 0641 3c3d 2c7c e4bd 84ae 8fbc da4a fb3d

conv1.bias f4 [16]
-0.10218918 -0.0724101 -0.11106932 -0.2910659 -0.060743086 0.07661086 0.049607735 -0.043652553
-0.10653297 -0.030643437 -0.1624895 -0.048257213 -5.358201e-05 -0.1842614 -0.11746485 -0.07861521
00000000: 9048 d1bd bf4b 94bd 5078 e3bd 9706 95be
00000010: becd 78bd 28e6 9c3d 7b31 4b3d 05cd 32bd
00000020: f52d dabd f207 fbbc a663 26be 5ba9 45bd
00000030: 3fbd 60b8 05af 3cbe 6991 f0bd 0301 a1bd

conv2.weight f4 [32, 16, 5, 5]
-0.07734257 0.07568307 0.09797512 0.072839 -0.053432334 0.04407647 0.046430547 0.036671683
0.004562475 -0.016349249 0.058533702 0.14426653 -0.03364277 -0.055064503 -0.064018145 -0.123544015
-0.099538416 -0.1852427 -0.07608073 0.0067335404 0.05391433 -0.051713016 0.05289891 0.096817374
0.024549438 -0.010871077 -0.09788781 -0.059334114 0.026716176 0.08286623 -0.030609211 0.025468023
-0.06309597 0.07069858 0.052776407 0.04096451 0.05309032 0.08062487 0.055751175 0.06774853
-0.00978881 0.0047296053 0.018436192 0.06863808 0.30522954 -0.16259724 -0.105884954 0.014447517
0.13461535 0.09385006 0.0815992 0.05597312 -0.059426583 -0.041687217 -0.0374829 0.06892176
0.06616261 -0.073032714 -0.07998575 -0.041675407 -0.047246296 -0.073447734 -0.090927 -0.10243843
-0.108072735 0.10022099 0.07604778 0.08104331 -0.15524498 -0.24758616 0.3377838 0.28962892
0.2005412 0.0870322 -0.04896272 0.11121156 0.019674193 -0.082766525 -0.09258213 0.036194913
0.030726839 -0.063285396 -0.0848941 -0.025823383 0.039824978 -0.032461323 -0.0047690845 -0.020280566
0.014702714 -0.015988871 -0.19630253 -0.017939927 0.077761255 0.03979006 0.014222928 -0.038770393
0.052714612 0.010988593 0.011568303 0.07086491 -0.0041361386 -0.028579883 0.012262351 0.015492736
0.023575632 -0.0049518677 0.014805844 0.12807141 0.0907734 -0.04891395 0.06920621 0.08784434
0.10972159 0.026066035 0.11347884 0.06449834 0.14561826 0.12285826 0.1343028 0.24795821
-0.11695736 -0.07105104 0.039551605 0.11347704 0.14625074 0.0596236 0.08703151 0.101194456
0.0075243255 -0.029624771 0.03129867 0.01801395 0.03796238 0.023728743 -0.029405518 -0.012327751
-0.045821045 0.011219589 -0.044542495 -0.050973255 0.033462707 0.11342789 0.056883454 -0.04023538
-0.10721712 -0.08822721 -0.15810405 -0.12907876 -0.13032424 -0.06581176 0.008293666 0.035150953
0.06559435 0.051528815 -0.038778286 -0.004342325 0.006508193 0.009210247 0.061208908 0.03826973
-0.051574264 0.03102573 0.09380061 0.026160171 0.04345818 0.09194224 0.054852188 -0.05097842
0.03716668 -0.09522288 0.015348982 -0.03467962 -0.030480374 -0.08476914 -0.27667862 0.030621646
0.032213133 0.06366125 0.06833312 0.0472325 0.014731077 0.052317463 0.025534457 0.00039651757
-0.074893996 0.067446865 -0.042454023 -0.034111593 -0.063175015 -0.113465376 0.05375112 0.052778114
0.030029984 -0.01778859 -0.04431521 -0.054337908 -0.041264694 -0.12398372 -0.07372508 -0.07113501
0.064931594 0.014940412 -0.094297566 -0.09432427 -0.12028635 0.005239072 0.0040513035 -0.089576825
-0.09254122 -0.044851854 0.05439479 0.056639705 -0.04512622 0.036460128 -0.021358434 -0.09815188
-0.025947146 -0.023069546 0.13713735 0.049225133 0.07427223 0.20829336 0.33628803 0.1492811
-0.10264111 0.022598907 0.08010443 0.112756476 0.10263249 0.05899626 -0.04900024 0.0492199
0.06450013 0.07869603 0.13242617 -0.030702813 -0.033366043 0.056264974 0.11238963 0.21362722
-0.090012066 0.014472205 0.07802909 0.22853339 0.18333577 0.038237777 -0.036082838 0.1334296
0.035670985 -0.06466997 0.1882663 0.07577796 -0.05357334 -0.066136956 -0.11064683 0.12432526
00000000: c865 9ebd baff 9a3d 2ea7 c83d 9d2c 953d
00000010: dddb 5abd 8789 343d f52d 3e3d 0c35 163d
00000020: d080 953b dcee 85bc 09c1 6f3d 9bba 133e
00000030: 00cd 09bd 518b 61bd f21b 83bd a504 fdbd
00000040: ccda cbbd 43b0 3dbe 37d0 9bbd 08a5 dc3b
00000050: 46d5 5c3d 07d1 53bd 87ac 583d 3048 c63d
00000060: e71b c93c 9a1c 32bc 6779 c8bd 5408 73bd
00000070: e2db da3c c5b5 a93d 2bc0 fabc 51a2 d03c
00000080: 7638 81bd 6bca 903d 132c 583d 67ca 273d
00000090: 3c75 593d a71e a53d 585b 643d bebf 8a3d
000000a0: 3f61 20bc cefa 9a3b 7f07 973c 1f92 8c3d
000000b0: 0c47 9c3e e47f 26be 36da d8bd 47b5 6c3c
000000c0: 9bd8 093e 7634 c03d 7b1d a73d 1244 653d
000000d0: 4a69 73bd 37c0 2abd ab87 19bd da26 8d3d
000000e0: 4380 873d 2d92 95bd 92cf a3bd d5b3 2abd
000000f0: 5585 41bd c46b 96bd ef37 babd 3dcb d1bd
00000100: 3d55 ddbd aa40 cd3d f0be 9b3d 09fa a53d
00000110: 8af8 1ebe 3a87 7dbe 00f2 ac3e 3e4a 943e
00000120: ac5a 4d3e f03d b23d 228d 48bd e3c2 e33d
00000130: c62b a13c 7f81 a9bd b39b bdbd 1e41 143d
00000140: dab6 fb3c c69b 81bd f5dc adbd 8f8b d3bc
00000150: 841f 233d 2af6 04bd fb45 9cbb 6e23 a6bc
00000160: a7e3 703c 18fb 82bc 8803 49be c1f6 92bc
00000170: 4b41 9f3d e7fa 223d 4907 693c b4cd 1ebd
00000180: 47eb 573d 8009 343c fb88 3d3c 9f21 913d
00000190: 7288 87bb 5c20 eabc 07e8 483c 3fd5 7d3c
000001a0: af21 c13c 4743 a2bb 3694 723c 2725 033e
000001b0: 68e7 b93d fe59 48bd fcbb 8d3d bce7 b33d
000001c0: b7b5 e03d 7088 d53c 9867 e83d b517 843d
000001d0: f41c 153e 1d9d fb3d ac86 093e c2e8 7d3e
000001e0: 5787 efbd 3583 91bd dd00 223d a666 e83d
000001f0: c1c2 153e e037 743d 943d b23d 0a3f cf3d
00000200: 9e8e f63b a6af f2bc 0933 003d fe91 933c
00000210: 717e 1b3d c862 c23c d7e3 f0bc 56fa 49bc
00000220: d9ae 3bbd 5ed2 373c 3172 36bd 55c9 50bd
00000230: 3110 093d e24c e83d a0fe 683d dbcd 24bd
00000240: a694 dbbd 78b0 b4bd 07e6 21be 392d 04be
00000250: b873 05be 51c8 86bd 28e2 073c 72fa 0f3d
00000260: 5556 863d e10f 533d fbd5 1ebd 104a 8ebb
00000270: ae42 d53b 93e6 163c 31b6 7a3d b8c0 1c3d
00000280: 893f 53bd ac29 fe3c 891a c03d db4d d63c
00000290: 3401 323d 374c bc3d b0ac 603d bfce 50bd
000002a0: 173c 183d 3704 c3bd 4c7a 7b3c 380c 0ebd
000002b0: fab1 f9bc 719b adbd d2a8 8dbe 3fda fa3c
000002c0: ebf1 033d d460 823d 3cf2 8b3d de76 413d
000002d0: 9d5a 713c d64a 563d a32d d13c b0e3 cf39
000002e0: 0662 99bd 9521 8a3d 45e4 2dbd 99b8 0bbd
000002f0: e761 81bd 8960 e8bd 222a 5c3d dd2d 583d
00000300: 7101 f63c 61b9 91bc de83 35bd 6d91 5ebd
00000310: 2b05 29bd 2deb fdbd 2dfd 96bd 3baf 91bd
00000320: dbfa 843d a1c8 743c 151f c1bd 152d c1bd
00000330: b158 f6bd 85ac ab3b ccc0 843b 0e74 b7bd
00000340: 4086 bdbd 94b6 37bd 12cd 5e3d 09ff 673d
00000350: 45d6 38bd 3757 153d e2f7 aebc da03 c9bd
00000360: 1c8f d4bc 58fc bcbc bc6d 0c3e 4ba0 493d
00000370: 0a1c 983d db4a 553e f22d ac3e 25dd 183e
00000380: 8135 d2bd 5821 b93c cb0d a43d deec e63d
00000390: fc30 d23d 10a6 713d 7ab4 48bd ce9a 493d
000003a0: a518 843d 622b a13d ba9a 073e 7784 fbbc
000003b0: d5aa 08bd 1a76 663d 892c e63d 18c1 5a3e
000003c0: 3f58 b8bd d41c 6d3c b7cd 9f3d a804 6a3e
000003d0: 5fbc 3b3e 379f 1c3d 99cb 13bd c5a1 083e
000003e0: bd1b 123d b071 84bd e2c8 403e 7a31 9b3d
000003f0: b86f 5bbd d072 87bd ce9a e2bd 3e9e fe3d

conv2.bias f4 [32]
-0.32710224 -0.021565033 -0.13541864 0.11312386 -0.03044069 0.13345645 -0.035214595 0.21897812
-0.03984764 0.25734434 -0.06867348 0.24976358 -0.060776535 -0.048004366 0.009849802 -0.17645308
-0.05872443 -0.030691495 0.31004688 -0.2185842 0.011562939 -0.07720154 0.14348851 -0.04661555
0.32789335 0.13102171 0.08062009 -0.34279436 -0.009737944 -0.1856706 -0.14687419 0.21226828
00000000: f279 a7be 27a9 b0bc 2fab 0abe 7bad e73d
00000010: c15e f9bc cfa8 083e 2e3d 10bd cd3b 603e
00000020: 4737 23bd a3c2 833e aea4 8cbd 06c2 7f3e
00000030: d1f0 78bd 3aa0 44bd 1061 213c 1eb0 34be
00000040: 0789 70bd bb6c fbbc 77be 9e3e 89d4 5fbe
00000050: 7b72 3d3c d71b 9ebd a7ee 123e f2ef 3ebd
00000060: a3e1 a73e 8e2a 063e 251c a53d be82 afbe
00000070: e68b 1fbc 6f20 3ebe 3066 16be db5c 593e

fc1.weight f4 [120, 800]
-0.02564769 -0.007715921 -0.0425723 -0.06279024 0.018586151 -0.067557804 -0.06275631 -0.009971739
0.01281884 -0.014994484 -0.029887658 -0.029605458 -0.056493506 -0.04201062 -0.0065885764 -0.06241535
-0.042813383 -0.005199591 -0.016793694 -0.021120138 -0.048547637 -0.047089003 -0.0008108322 -0.026066529
0.021479197 -0.011918444 -0.037180785 -0.03888629 0.029991174 0.054768756 -0.05552525 -0.022033263
-0.006675033 -0.004478204 0.05268655 -0.010033153 0.0020519646 -0.01737493 0.0031223884 -0.027051507
-0.0047321627 -0.02584052 -0.02827896 -0.035432525 -0.053014614 0.0015687183 -0.035316482 -0.018165527
-0.017633235 0.011924614 -0.04449658 -0.05701557 -0.020738445 0.062204324 0.062444035 -0.06921706
-0.032364745 0.01840541 0.0371303 0.033771142 -0.030252734 -0.025772922 -0.0037000768 0.065476984
0.024628924 0.036268506 0.017123606 0.0020033892 0.042089317 0.006675697 -0.012857302 -0.02323892
-0.03639602 -0.057366513 -0.00581888 -0.021904992 -0.028995786 0.029993182 -0.031073483 -0.010945543
0.0068704695 4.2988268e-05 -0.01735737 -0.05339074 0.007160576 -0.031801477 0.0019480033 -0.03974829
-0.02802932 0.034959007 -0.022165256 -0.05593958 -0.010507261 -0.003387381 0.01762238 -0.052908372
-0.020587342 -0.0639571 -0.048458923 0.025382709 0.017539531 0.013814125 0.028111536 0.031184789
0.017725293 -0.03380124 0.024069622 0.010990389 -0.013206303 -0.0199887 -0.03328799 -0.017671159
0.0144611485 -0.0019223988 -0.027485643 -0.020225145 0.0119127445 -0.005532153 0.033532303 0.006985523
-0.03438476 -0.012090705 0.025932822 -0.02308955 -0.02923628 -0.035981715 0.021363633 0.0045002433
0.022475727 -0.019503197 -0.015862899 -0.01863919 -0.0322588 0.014593386 -0.030629488 0.0054021147
-0.029372964 -0.0023311735 -0.05557885 -0.018958192 0.03960606 -0.017823137 -0.0008712485 -0.057100102
-0.057210337 0.028132686 -0.025297333 0.012711047 -0.04273718 -0.045877207 0.002523888 0.01486741
0.02889013 -0.020726062 0.019033197 0.034060974 -0.0070605464 0.028075423 0.034750212 -0.02849171
-0.035334945 0.015890304 -0.018724548 0.0028223284 -0.0050390344 -0.011859352 -0.005546391 0.021609273
0.017749917 -0.031609703 0.014838088 0.008781217 0.013673499 -0.011901403 0.012712508 -0.024210935
-0.018501595 -0.04924878 0.03592172 -0.021414312 -0.018736461 -0.0239896 -0.02453908 0.005924101
-0.020973047 -0.0047582807 -0.0637436 -0.06614953 -0.0363486 0.03530525 -0.02664325 -0.0490758
-0.013792171 0.034000378 0.05474375 -0.043039035 0.008274182 -0.04492943 -0.010927619 0.0009133098
0.029999908 -0.015965214 0.01828413 -0.030807393 0.0021568947 -0.00068768114 -0.014275795 0.025004916
0.0072324127 0.024583194 0.005088087 0.0017826743 0.029533152 -0.023511548 -0.0305284 0.0050610825
0.023356654 0.029935677 0.004018016 -0.022952434 0.025399704 -0.005892236 0.010057084 -0.028540097
0.0027322136 -0.05100494 0.009657543 -0.04239858 -0.007970517 -0.027321614 0.0018278944 -0.005503751
0.03140432 -0.019012464 0.008133773 -0.033181928 0.0016880722 -0.0122175235 -0.03625164 3.408092e-05
-0.02324204 -0.020139953 -0.04507014 -0.016183278 0.006216882 0.0089164935 0.0025332265 0.012316529
-0.0113077285 -0.013243863 0.015269887 -0.029285334 -0.014227811 -0.010280447 -0.011299154 -0.0034585744
00000000: 1b1b d2bc d6d5 fcbb 4b60 2ebd 2b98 80bd
00000010: fc41 983c bf5b 8abd 6186 80bd 8160 23bc
00000020: 1d06 523c 6dab 75bc f6d6 f4bc 2587 f2bc
00000030: bc65 67bd 5413 2cbd fce4 d7bb 3da7 7fbd
00000040: 165d 2fbd 5561 aabb ee92 89bc 2404 adbc
00000050: e3d9 46bd 66e0 40bd 078e 54ba 7989 d5bc
00000060: 24f5 af3c 9445 43bc e14a 18bd 3b47 1fbd
00000070: 0db0 f53c 3455 603d 726e 63bd 1a7f b4bc
00000080: 3cba dabb e6bd 92bb dacd 573d 1862 24bc
00000090: 417a 063b df55 8ebc fca0 4c3b 1f9b ddbc
000000a0: 4210 9bbb 80af d3bc 47a9 e7bc b221 11bd
000000b0: da25 59bd 749d cd3a 04a8 10bd dfcf 94bc
000000c0: 9373 90bc 755f 433c 0c42 36bd 2989 69bd
000000d0: ace3 a9bc f6c9 7e3d 51c5 7f3d adc1 8dbd
000000e0: e590 04bd f1c6 963c f115 183d 9c53 0a3d
000000f0: 95d4 f7bc bc21 d3bc fd7c 72bb cc18 863d
00000100: 99c2 c93c 498e 143d ce46 8c3c 4b4b 033b
00000110: d965 2c3d cebf da3b 6fa7 52bc 8c5f bebc
00000120: fe13 15bd 26f9 6abd 4eac bebb 1972 b3bc
00000130: 9288 edbc 43b4 f53c d18d febc ef54 33bc
00000140: ad21 e13b 4d4e 3438 0b31 8ebc 40b0 5abd
00000150: 44a3 ea3b 4442 02bd 2554 ff3a 1acf 22bd
00000160: bf9d e5bc 2d31 0f3d e993 b5bc e720 65bd
00000170: a626 2cbc d3fe 5dbb cf5c 903c 73b6 58bd
00000180: c9a6 a8bc f1fb 82bd dd7c 46bd 66ef cf3c
00000190: 10af 8f3c a454 623c 2a4a e63c 3e77 ff3c
000001a0: a234 913c 2b73 0abd a82d c53c 0811 343c
000001b0: 405f 58bc 58bf a3bc fd58 08bd 1bc3 90bc
000001c0: 74ee 6c3c 00f9 fbba 9229 e1bc 34af a5bc
000001d0: ac2d 433c 1047 b5bb 2b59 093d d0e6 e43b
000001e0: 09d7 0cbd 1818 46bc 1271 d43c 4c26 bdbc
000001f0: ec80 efbc 9061 13bd c902 af3c c776 933b
00000200: 041f b83c 2bc5 9fbc e9f2 81bc 37b1 98bc
00000210: ce21 04bd 1919 6f3c b1ea fabc 3904 b13b
00000220: 929f f0bc 9ac6 18bb a6a6 63bd 364e 9bbc
00000230: f739 223d d401 92bc 7f64 64ba cce1 69bd
00000240: 6355 6abd 8576 e63c 5a3c cfbc ff41 503c
00000250: 2e0d 2fbd bde9 3bbd d067 253b 7096 733c
00000260: feaa ec3c b4c9 a9bc 82eb 9b3c 8583 0b3d
00000270: 285c e7bb 6efe e53c 3d56 0e3d 7267 e9bc
00000280: 60bb 10bd 622c 823c 3964 99bc d0f6 383b
00000290: 7c1e a5bb ba4d 42bc 80be b5bb ee05 b13c
000002a0: 4668 913c 2d79 01bd 741b 733c 18df 0f3c
000002b0: d006 603c 1afe 42bc 2048 503c 0356 c6bc
000002c0: a890 97bc 17b9 49bd a722 133d 116d afbc
000002d0: 357d 99bc d685 c4bc 2e06 c9bc f61e c23b
000002e0: abcf abbc 5aeb 9bbb 018c 82bd 6879 87bd
000002f0: 45e2 14bd 3d9c 103d f242 dabc b503 49bd
00000300: 8ff8 61bc fb43 0b3d fb3a 603d b349 30bd
00000310: 6f90 073c ec07 38bd c209 33bc 2f6b 6f3a
00000320: 5ec2 f53c 7bc9 82bc 9ac8 953c c95f fcbc
00000330: b05a 0d3b 8045 34ba 06e5 69bc 1cd7 cc3c
00000340: e0fd ec3b b262 c93c f8b9 a63b a0a8 e93a
00000350: 82ef f13c 4a9b c0bc b216 fabc 70d7 a53b
00000360: 7456 bf3c aa3b f53c 90a9 833b be06 bcbc
00000370: 0a13 d03c a813 c1bb 78c6 243c eccc e9bc
00000380: f00e 333b 8eea 50bd ac3a 1e3c 22aa 2dbd
00000390: c596 02bc 94d1 dfbc f595 ef3a cf58 b4bb
000003a0: d1a1 003d 07c0 9bbc 8443 053c c6e9 07bd
000003b0: 4e42 dd3a 022c 48bc 9a7c 14bd 1cf2 0e38
000003c0: 1766 bebc 8bfc a4bc 789b 38bd cb92 84bc
000003d0: fcb6 cb3b 7c16 123c 7d04 263b 44cb 493c
000003e0: 0d44 39bc cafc 58bc 8c2e 7a3c cce7 efbc
000003f0: c41b 69bc 526f 28bc 1620 39bc 40a9 62bb

fc1.bias f4 [120]
-0.040078733 0.31599045 -0.06770442 -0.035526242 0.018797886 -0.058966428 -0.016846156 -0.0071051554
0.024642523 0.13229842 0.022572292 -0.050571937 0.008290024 -0.13882676 0.030647611 0.05397414
-0.026632307 -0.15732302 -0.077834256 0.2508927 -0.25087917 -0.027626289 -0.058640495 -0.046010464
-0.14983809 0.17123786 0.019852778 -0.033783153 -0.009554221 0.027667308 -0.053540874 0.037552018
-0.0153498305 -0.090771995 0.019194428 -0.024717616 -0.0215749 -0.030422347 -0.016261354 0.014781616
0.2591816 0.17421983 -0.06798731 -0.036312316 -0.071912676 -0.021461021 -0.008107774 -0.046410337
0.013797139 -0.0044406317 0.18300356 -0.010989778 0.0085026445 0.233961 -0.019276429 -0.029483972
0.16908632 -0.17594306 0.24907319 0.038277704 0.052525993 -0.04606106 -0.02914016 -0.032473773
-0.04289456 -0.042297002 0.07131411 -0.04191104 0.013139577 -0.053973008 -0.01219823 0.07674431
-0.14866029 -0.020758256 0.009931741 0.34629205 0.06434864 0.0048684357 -0.022886882 0.0047667976
-0.0014564035 -0.07551257 0.33048368 0.00016066195 -0.052478112 0.012864952 -0.052811302 0.06901521
-0.020379927 -0.29194674 0.10404376 -0.018062407 -0.01668645 0.21062037 0.16665448 -0.047173593
-0.05973862 0.14674793 -0.05529686 0.322649 0.17780156 0.19240911 0.20291045 -0.06791004
-0.04396931 -0.0760864 0.009186183 0.00013070331 -0.025644284 0.23630512 -0.0712673 0.18521589
0.19849378 0.18850142 -0.059006248 -0.044608004 0.0381373 0.44267344 0.23586251 -0.051996402
00000000: 9929 24bd 80c9 a13e 9da8 8abd f783 11bd
00000010: 06fe 993c c886 71bd f300 8abc 5dd2 e8bb
00000020: 1edf c93c 3d79 073e 87e9 b83c 8524 4fbd
00000030: e1d2 073c 9a28 0ebe b310 fb3c fd13 5d3d
00000040: ff2b dabc 4919 21be 9167 9fbd 0275 803e
00000050: 3c73 80be 8750 e2bc 0431 70bd 7875 3cbd
00000060: 286f 19be fa58 2f3e 4ba2 a23c 3460 0abd
00000070: 4f89 1cbc 8da6 e23c ad4d 5bbd 25d0 193d
00000080: db7d 7bbc abe6 b9bd a23d 9d3c 997c cabc
00000090: d8bd b0bc 4938 f9bc 8836 85bc 972e 723c
000000a0: 73b3 843e af66 323e ee3c 8bbd 39bc 14bd
000000b0: f446 93bd 06cf afbc 78d6 04bc c418 3ebd
000000c0: 650d 623c b882 91bb 4965 3b3e 780e 34bc
000000d0: ad4e 0b3c 7993 6f3e 9ae9 9dbc 5f88 f1bc
000000e0: f724 2d3e 6b2a 34be 0b0d 7f3e 15c9 1c3d
000000f0: 7f25 573d 86aa 3cbd 58b7 eebc 3803 05bd
00000100: 35b2 2fbd 9f3f 2dbd 220d 923d e9aa 2bbd
00000110: 6147 573c cd12 5dbd 16db 47bc 1f2c 9d3d
00000120: 673a 18be 380d aabc beb8 223c 314d b13e
00000130: 38c9 833d 6687 9f3b 457d bbbc cc32 9c3b
00000140: cbe4 beba 56a6 9abd 2835 a93e 5d77 2839
00000150: 4af3 56bd 85c7 523c aa50 58bd d957 8d3d
00000160: cef3 a6bc 0b7a 95be e514 d53d 9df7 93bc
00000170: 06b2 88bc deac 573e 79a7 2a3e 1939 41bd
00000180: 7cb0 74bd 1745 163e f67e 62bd 4032 a53e
00000190: 9d11 363e e506 453e c2c7 4f3e 6b14 8bbd
000001a0: 2a19 34bd 30d3 9bbd a581 163c 670d 0939
000001b0: f613 d2bc f8f9 713e 97f4 91bd 3ca9 3d3e
000001c0: f441 4b3e 8406 413e 89b0 71bd e2b6 36bd
000001d0: dc35 1c3d 18a6 e23e f185 713e 2efa 54bd

fc2.weight f4 [84, 120]
-0.0008149107 -0.016405175 0.059098113 0.09144269 0.008373058 0.06323622 -0.17985548 -0.028741559
0.06271465 -0.16984175 -0.07287695 0.2566463 0.032913025 0.16616692 -0.049425673 0.09048425
0.017655764 0.048624076 0.02285948 -0.13788135 0.13828582 -0.1026432 0.07151009 -0.07495949
0.014701786 0.0002814168 -0.05076401 -0.06618461 0.026351528 0.09112811 0.069138676 -0.05136446
0.07011325 0.1425445 0.05655058 0.07883369 0.020491019 0.073296756 0.033328287 -0.029607331
-0.26053998 -0.032825522 -0.09026843 0.00919573 -0.042966105 0.024239482 -0.023943923 0.03910233
0.14967091 0.06553254 -0.053831246 -0.10813958 -0.058458086 0.037106074 0.06874384 0.032536186
0.007547599 0.16312541 -0.22128856 0.14801668 -0.036973394 0.055582277 -0.062981434 0.034082863
0.017780107 -0.03642483 -0.043351136 0.025200535 0.028550856 -0.04608152 0.029825892 0.13586085
0.17684214 -0.045794852 -0.044267654 0.002243363 0.048392024 0.037608262 0.07672224 0.078512244
0.057705577 0.07792843 -0.0060982388 0.032367185 -0.027490107 -0.10796442 -0.037306134 0.1771043
0.08438331 0.13757074 -0.030193571 0.026716117 -0.010167647 0.117998265 0.04289689 0.071091026
0.13531984 -0.07478824 0.044741563 -0.042751007 -0.26141238 -0.09559878 0.10611337 0.050178196
0.153129 0.07031041 0.11714584 -0.07806623 0.015404756 -0.09800661 0.11734297 -0.040364992
0.021507263 -0.19408816 0.07109802 0.015900213 -0.04519226 -0.14385776 -0.1847044 -0.037554428
-0.005671575 0.08350305 0.028276693 0.075869575 -0.0580297 0.038251106 -0.025572697 0.08270062
0.06469205 -0.048509207 -0.06268916 0.07510829 -0.08149482 0.0037838116 0.087050915 -0.228916
0.07181862 0.009316335 0.07084781 0.16779876 -0.004222167 -0.09173613 -0.06889713 -0.011570096
-0.009817473 0.025509188 0.04744634 0.036220293 -0.11451658 0.060229357 -0.058131505 0.012223734
-0.032557786 -0.06759572 0.050824612 0.008464607 -0.028652377 -0.042837944 0.079428166 0.0013893868
0.09066596 -0.05587266 0.11463131 0.054155294 0.042726167 -0.087450676 0.008727089 -0.08501561
-0.12846152 0.035471953 0.09731611 0.009347707 0.015862247 0.19476451 -0.061298583 -0.07990772
-0.15810013 -0.057373703 0.048156343 -0.10384675 -0.014840984 -0.010421633 0.04976063 0.049044695
0.019827444 -0.00089081476 0.0742195 -0.100099325 -0.02625909 0.035199955 0.10852073 -0.046406515
0.14197747 0.07955355 0.039801802 -0.14084704 0.12187153 0.0039682537 -0.033227935 -0.056866884
0.05640879 -0.09346516 -0.023915518 -0.015394121 0.01327094 0.15656415 -0.040586784 0.07212853
0.03546591 0.049119733 -0.006869283 0.06393567 0.10357117 0.12005366 -0.1034911 0.008547999
-0.035064016 -0.12404886 0.019273965 0.048341304 -0.050609957 0.12634027 -0.06515455 0.009137645
0.0132709555 -0.009680006 0.06465092 -0.014023921 0.034449518 0.015094148 0.019490732 0.028136563
-0.051147714 -0.16024274 0.05551508 0.03636243 0.07518897 -0.099889785 -0.08887778 -0.034405045
-0.055788677 -0.103133515 -0.07680041 -0.004354267 -0.0399819 0.06609155 0.031330608 0.042183384
0.0003566841 -0.40924385 0.024564154 -0.18265724 0.062975295 0.023278238 0.04899188 -0.2617344
00000000: bb9f 55ba 2564 86bc dd10 723d 4e46 bb3d
00000010: 272f 093c fe81 813d 092c 38be 6b73 ebbc
00000020: 8a70 803d ffea 2dbe 8340 95bd 2567 833e
00000030: cfcf 063d a927 2a3e 9372 4abd ce4f b93d
00000040: d2a2 903c 0a2a 473d ce43 bb3c c530 0dbe
00000050: cc9a 0d3e 9936 d2bd e273 923d 5c84 99bd
00000060: c3df 703c 208b 9339 eced 4fbd cc8b 87bd
00000070: 29df d73c 60a1 ba3d 9498 8d3d 8a63 52bd
00000080: 8997 8f3d 2ff7 113e 95a1 673d 8f73 a13d
00000090: c8dc a73c 9c1c 963d 3e83 083d 138b f2bc
000000a0: 7f65 85be 0e74 06bd a8de b8bd b0a9 163c
000000b0: 3afd 2fbd e191 c63c 0c26 c4bc c429 203d
000000c0: 5543 193e ed35 863d 277e 5cbd 4978 ddbd
000000d0: bf71 6fbd 8afc 173d 92c9 8c3d aa44 053d
000000e0: d951 f73b 590a 273e 7899 62be af91 173e
000000f0: 6a71 17bd 3eaa 633d 69fc 80bd 799a 0b3d
00000100: 96a7 913c 3432 15bd f690 31bd 5a71 ce3c
00000110: 7ce3 e93c fabf 3cbd 6e55 f43c 1b1f 0b3e
00000120: 1b16 353e 6293 3bbd 0052 35bd 6305 133b
00000130: b736 463d 1f0b 1a3d 8d20 9d3d 07cb a03d
00000140: af5c 6c3d f198 9f3d bcd3 c7bb 7493 043d
00000150: ef32 e1bc 731c ddbd 51ce 18bd d45a 353e
00000160: 28d1 ac3d 58df 0c3e 8258 f7bc c2db da3c
00000170: 3496 26bc 13a9 f13d a6b4 2f3d 2c98 913d
00000180: 4991 0a3e 942a 99bd ee42 373d ae1b 2fbd
00000190: d8d7 85be 4bc9 c3bd f751 d93d a787 4d3d
000001a0: d9cd 1c3e e7fe 8f3d 28ea ef3d 30e1 9fbd
000001b0: 3b64 7c3c b1b7 c8bd 8351 f03d c355 25bd
000001c0: 0030 b03c 0cbf 46be d79b 913d 2a41 823c
000001d0: 851b 39bd 734f 13be 2623 3dbe acd2 19bd
000001e0: 9fd8 b9bb a603 ab3d 86a4 e73c 8261 9b3d
000001f0: 8db0 6dbd 31ad 1c3d d57d d1bc f15e a93d
00000200: 447d 843d 97b1 46bd 2d63 80bd 60d2 993d
00000210: c2e6 a6bd d3f9 773b c047 b23d f568 6abe
00000220: a415 933d 8ba3 183c a818 913d 70d3 2b3e
00000230: 1b5a 8abb 27e0 bbbd f019 8dbd 8090 3dbc
00000240: 77d9 20bc a5f8 d03c 1857 423d bb5b 143d
00000250: ab87 eabd 0fb3 763d 4d1b 6ebd 0e46 483c
00000260: 505b 05bd a06f 8abd 782d 503d 23af 0a3c
00000270: 64b8 eabc d776 2fbd 3cab a23d 161c b63a
00000280: 13af b93d bbda 64bd d2c3 ea3d f1d1 5d3d
00000290: a201 2f3d 5719 b3bd 10fc 0e3c aa1c aebd
000002a0: 6b8b 03be 0a4b 113d ab4d c73d 2027 193c
000002b0: 8bf1 813c 5970 473e 3914 7bbd a9a6 a3bd
000002c0: 00e5 21be b000 6bbd 963f 453d 9bad d4bd
000002d0: 9927 73bc 7fbf 2abc cdd1 4b3d 17e3 483d
000002e0: 2a6d a23c 9185 69ba 6500 983d e000 cdbd
000002f0: 4e1d d7bc d42d 103d 1e40 de3d c214 3ebd
00000300: 8b62 113e f9ec a23d 3707 233d 353a 10be
00000310: c897 f93d 2008 823b 041a 08bd 40ed 68bd
00000320: e70c 673d a96a bfbd 7aea c3bc a037 7cbc
00000330: 5b6e 593c 5a52 203e 543e 26bd 1fb8 933d
00000340: b444 113d c631 493d b917 e1bb b4f0 823d
00000350: 1f1d d43d b1de f53d 24f3 d3bd e80c 0c3c
00000360: 499f 0fbd 540d febd 6fe4 9d3c 8801 463d
00000370: 634c 4fbd 585f 013e c06f 85bd 10b6 153c
00000380: 6c6e 593c e398 1ebc b467 843d 97c4 65bc
00000390: f01a 0d3d 724d 773c 07ab 9f3c a67e e63c
000003a0: 4480 51bd ac16 24be c863 633d c5f0 143d
000003b0: adfc 993d 0493 ccbd 8e05 b6bd 4eec 0cbd
000003c0: ab82 64bd aa37 d3bd 8949 9dbd 3dae 8ebb
000003d0: 10c4 23bd 025b 873d 8654 003d 7cc8 2c3d
000003e0: 5401 bb39 6988 d1be c43a c93c 800a 3bbe
000003f0: 31f9 803d 01b2 be3c b6ab 483d 0d02 86be

fc2.bias f4 [84]
-0.18786746 0.06349322 -0.091016345 -0.05776283 0.21615946 -0.0302947 -0.012312988 -0.12956943
0.21057385 0.010128809 -0.09593299 -0.011818931 0.02212155 0.114263594 0.08862798 0.15304668
0.1572594 -0.17313677 0.29922688 0.3340656 0.3052324 0.2047389 0.18303335 -0.14852366
0.16542663 -0.100070335 0.07229745 0.18551858 -0.018330462 0.40203077 0.22563319 0.213507
0.02868975 0.26233885 0.1733952 0.1054812 0.14102864 0.1040173 -0.0023211834 0.06438438
-0.06385899 0.008767132 0.055119656 0.15966938 -0.11745138 0.21910876 0.28644404 0.04444367
-0.05307549 0.015394108 0.05542284 0.10388072 0.18186529 0.05758498 0.13102925 -0.023650004
-0.0068763513 0.033452746 0.12658633 0.09156139 0.37948844 -0.08338601 0.13009784 0.31067967
0.05945993 -0.07284646 0.09500523 0.016386988 -0.009346995 0.04414033 0.15811548 0.23809804
-0.15759808 -0.04827607 0.16185774 0.111826815 0.24077973 0.07517717 0.01238149 0.03400394
-0.18931796 -0.13334765 0.29736155 0.050684724
00000000: 5460 40be bc08 823d c766 babd b898 6cbd
00000010: e858 5d3e 972c f8bc 6abc 49bc d9ad 04be
00000020: aca0 573e 4ef3 253c 8478 c4bd 31a4 41bc
00000030: 4138 b53c 0803 ea3d 9682 b53d 45b8 1c3e
00000040: 9c08 213e c44a 31be 4434 993e a50a ab3e
00000050: 6c47 9c3e 13a7 513e 186d 3b3e 9616 18be
00000060: 9965 293e adf1 ccbd af10 943d 95f8 3d3e
00000070: c429 96bc fad6 cd3e 630c 673e 94a1 5a3e
00000080: c406 eb3c 4751 863e 838e 313e 8706 d83d
00000090: d069 103e 0607 d53d ff1e 18bb f5db 833d
000000a0: 81c8 82bd 04a4 0f3c 26c5 613d 5f80 233e
000000b0: 598a f0bd 0c5e 603e cba8 923e 910a 363d
000000c0: af65 59bd 9237 7c3c 0f03 633d 6abf d43d
000000d0: e53a 3a3e 3ade 6b3d 882c 063e a7bd c1bc
000000e0: 0453 e1bb bf05 093d d99f 013e 8a84 bb3d
000000f0: 4f4c c23e 49c6 aabd 5e38 053e 6811 9f3e
00000100: 418c 733d 8630 95bd 1a92 c23d 013e 863c
00000110: 2324 19bc 7ecc 343d 06e9 213e f9cf 733e
00000120: 6461 21be 21bd 45bd 09be 253e 7505 e53d
00000130: f68e 763e 7df6 993d bcdb 4a3c b747 0b3d
00000140: 91dc 41be 498c 08be c63f 983e c99a 4f3d

fc3.weight f4 [10, 84]
-0.05297765 -0.09317118 0.03873265 0.018692892 0.026691461 -0.12266162 -0.023340117 -0.11073639
0.098792695 0.07516848 -0.16385484 -0.044036496 -0.26143375 0.020668445 0.10204408 0.15561867
0.14608173 0.11869305 -0.04623892 0.083120786 0.0772152 -0.24553105 0.121362254 0.08037218
-0.23421541 -0.14095561 -0.0555677 -0.20702675 -0.044557072 -0.18238792 -0.057314914 -0.10709585
0.009639921 -0.06929511 -0.20940836 0.111359395 0.09024509 0.11479791 0.21670128 0.050803836
0.04682329 -0.037974723 0.05493434 -0.2696282 0.04131033 -0.112113096 0.02441184 0.0051451107
-0.042703453 -0.017744279 0.025286812 -0.120141625 0.054274153 -0.09921048 0.10917623 -0.13320477
0.066606075 0.049737815 -0.14309376 -0.11986257 0.027049415 0.1702541 -0.22300574 -0.21162799
0.031510618 -0.03438505 0.084382035 -0.078361206 -0.00042280206 -0.14663893 -0.13132904 -0.19915563
0.08476209 -0.036161654 0.14100502 0.030925438 -0.23137033 0.016187033 -0.44783118 -0.12761925
-0.09953077 -0.12515318 0.047425877 -0.11677484 0.18903008 -0.050074175 -0.08230708 -0.056830104
-0.11493847 -0.05546614 0.09197016 -0.11122527 0.08361659 0.0071348376 0.14408544 0.028485052
-0.10588778 -0.026591761 -0.2650198 -0.06464638 -0.19613455 0.10187519 -0.27226546 -0.15940155
-0.11416264 0.12003981 -0.28500652 0.06262146 0.076830626 0.04534008 0.17466354 0.04001885
0.19178022 -0.26552975 0.07039275 -0.11778928 -0.19219698 -0.19369094 0.15031849 -0.0241046
-0.15715528 0.13156682 -0.18432282 -0.18090734 -0.10805014 0.079080045 -0.1597895 -0.1919131
0.0075385547 0.08447601 0.07228868 -0.06266039 0.12966387 -0.059700888 0.059449334 0.06153497
-0.019566389 0.007781211 -0.07105403 -0.005757723 -0.10424971 0.012750309 -0.0026624054 0.008869688
-0.16644545 -0.05375348 -0.12842238 -0.051891804 -0.12652527 -0.14367533 -0.16856527 0.08018222
0.10296832 -0.026981955 -0.08521995 -0.28727666 0.082300656 0.14419144 -0.16395111 -0.011074196
-0.1533439 -0.08963382 -0.36951026 -0.25396392 -0.09723649 0.0038709424 -0.18676375 0.14822756
0.109487645 -0.0006995889 -0.12598898 -0.04275136 0.027601467 -0.07839496 -0.14044327 -0.12429484
0.16355799 0.10556888 -0.14719714 0.0030710925 0.03958922 0.054464474 -0.10791301 0.13017122
-0.07599624 -0.11803999 0.045656517 -0.19432735 0.06257 -0.1233683 -0.0934405 -0.15053757
-0.11969969 -0.25449023 -0.13506235 -0.2332913 0.10595236 0.18483023 -0.14587726 -0.24832414
-0.05823263 0.06565868 0.106316105 -0.034472022 0.2068695 -0.13277596 -0.042400558 0.043673884
0.024629494 -0.182057 0.09216365 0.13381891 0.0154670235 -0.09414521 -0.2901221 -0.09424978
0.097175494 -0.029100252 -0.09735429 0.1970065 0.022269549 0.007208254 0.099491276 0.029490279
0.06925257 0.26544884 -0.17404683 0.1297199 -0.012673596 -0.07129924 0.06657733 -0.073923394
0.08409019 0.08625333 0.22135466 -0.013779802 -0.109907635 0.121099785 0.14578526 0.036432862
-0.01368247 -0.00014159427 0.07958718 0.037411775 0.17848969 -0.037423167 -0.07846567 -0.019909143
-0.11186772 -0.06400315 -0.070712455 -0.014827318 -0.02988865 0.04921567 -0.1550382 0.06623677
00000000: 18ff 58bd 88d0 bebd 21a6 1e3d d621 993c
00000010: 0da8 da3c 0436 fbbd c633 bfbc c3c9 e2bd
00000020: d353 ca3d eff1 993d 90c9 27be 9d5f 34bd
00000030: a5da 85be df50 a93c 7dfc d03d 805a 1f3e
00000040: 7396 153e 5815 f33d 0665 3dbd 3b3b aa3d
00000050: 0123 9e3d 7e6c 7bbe c68c f83d 2b9a a43d
00000060: 2ad6 6fbe ab56 10be f59a 63bd d2fe 53be
00000070: 7a81 36bd e6c3 3abe 0bc3 6abd 1255 dbbd
00000080: c2f0 1d3c 98ea 8dbd 256f 56be 6510 e43d
00000090: 6bd2 b83d 2b1b eb3d f1e6 5d3e af17 503d
000000a0: c7c9 3f3d 628b 1bbd d502 613d b50c 8abe
000000b0: 0535 293d 8d9b e5bd 57fb c73c 5198 a83b
000000c0: d1e9 2ebd 735c 91bc 4a26 cf3c d00c f6bd
000000d0: 934e 5e3d dd2e cbbd ca97 df3d d566 08be
000000e0: c468 883d e1b9 4b3d 2c87 12be 827a f5bd
000000f0: bc96 dd3c 1757 2e3e 9e5b 64be 02b5 58be
00000100: 4711 013d 57d7 0cbd 7dd0 ac3d d77b a0bd
00000110: 88ab ddb9 8428 16be 1f7b 06be 74ef 4bbe
00000120: bf97 ad3d 3e1e 14bd 9f63 103e 5857 fd3c
00000130: 58ec 6cbe ab9a 843c 214a e5be 9fae 02be
00000140: cad6 cbbd 2828 00be a341 423d a627 efbd
00000150: 1a91 413e 941a 4dbd 9d90 a8bd afc6 68bd
00000160: dc64 ebbd 7730 63bd da5a bc3d 13ca e3bd
00000170: 2d3f ab3d 5bcb e93b 228b 133e 7c59 e93c
00000180: b1db d8bd f7d6 d9bc adb0 87be 5265 84bd
00000190: 7fd7 48be f1a3 d03d 6166 8bbe 293a 23be
000001a0: 1ace e9bd 6fd7 f53d 60ec 91be ae3f 803d
000001b0: 6059 9d3d 85b6 393d 00db 323e ceea 233d
000001c0: 0962 443e 84f3 87be 132a 903d 823b f1bd
000001d0: 49cf 44be eb56 46be 17ed 193e 0377 c5bc
000001e0: 50ed 20be 74b9 063e 1fbf 3cbe c63f 39be
000001f0: 6449 ddbd b8f4 a13d dc9f 23be de84 44be
00000200: fb05 f73b c201 ad3d 160c 943d 1754 80bd
00000210: 9bc6 043e eb88 74bd 2581 733d 180c 7c3d
00000220: b149 a0bc 87f9 fe3b c684 91bd 48ab bcbb
00000230: df80 d5bd ace6 503c c07b 2ebb 2b52 113c
00000240: ad70 2abe 9c2c 5cbd 2881 03be 808c 54bd
00000250: d78f 01be a01f 13be 609c 2cbe 9336 a43d
00000260: 0ee1 d23d 4309 ddbc cc87 aebd ed15 93be
00000270: 3f8d a83d eca6 133e cde2 27be 8b70 35bc
00000280: 2f06 1dbe f091 b7bd 7330 bdbe 8f07 82be
00000290: ed23 c7bd a3af 7d3b ff3e 3fbe f7c8 173e
000002a0: 0f3b e03d 9e64 37ba 4103 01be 0d1c 2fbd
000002b0: 791c e23c 898d a0bd 5cd0 0fbe 4b8e febd
000002c0: bf7b 273e 7f34 d83d d9ba 16be 6244 493b
000002d0: 4e28 223d 2416 5f3d 7f01 ddbd 9b4b 053e
000002e0: eba3 9bbd f3be f1bd 5402 3b3d c0fd 46be
000002f0: b324 803d 85a8 fcbd bc5d bfbd 8526 1abe
00000300: 1c25 f5bd 8b4c 82be c94d 0abe eae3 6ebe
00000310: 8dfd d83d 2344 3d3e d960 15be af48 7ebe
00000320: 5785 6ebd 0f78 863d 42bc d93d 8932 0dbd
00000330: 99d5 533e 6cf6 07be 35ac 2dbd 63e3 323d
00000340: cbc3 c93c 266d 3abe 4cc0 bc3d d307 093e
00000350: 6669 7d3c 34cf c0bd e28a 94be 0706 c1bd
00000360: f203 c73d a763 eebc b061 c7bd 12bc 493e
00000370: a16e b63c 3833 ec3b 15c2 cb3d 9995 f13c
00000380: 4bd4 8d3d e9e8 873e 5539 32be 4bd5 043e
00000390: eaa4 4fbc 5605 92bd b259 883d 2665 97bd
000003a0: 7a37 ac3d 96a5 b03d ccaa 623e aec4 61bc
000003b0: 4117 e1bd 2a03 f83d bb48 153e a03a 153d
000003c0: 702c 60bc ec78 14b9 9afe a23d 173d 193d
000003d0: 00c6 363e 0949 19bd 9cb2 a0bd 8018 a3bc
000003e0: e71a e5bd 1514 83bd b1d1 90bd 47ee 72bc
000003f0: 0bd9 f4bc 5f96 493d 55c2 1ebe 25a7 873d

fc3.bias f4 [10]
-0.107976936 -0.192128 -0.04895108 0.07813478 0.12100233 0.06792721 -0.15063818 -0.045280695
0.22920251 -0.15712288
00000000: 0323 ddbd 34bd 44be ed80 48bd 2105 a03d
00000010: 12d0 f73d 6c1d 8b3d e540 1abe 4078 39bd
00000020: 10b4 6a3e d2e4 20be
